ChatBot/data.pth (torch, 6762 bytes, 6 tensors)

l1.weight f4 [8, 79]
0.6418453 0.14086527 0.31989744 0.53339905 0.39973375 -0.29074162 -0.22023712 -0.36594507
0.021011088 -0.075659096 0.65828824 0.22668466 0.85313517 -0.010833774 0.41752616 -0.33805215
0.006483845 -0.26527897 0.6783448 0.25057518 0.7820245 0.02865008 0.4848992 -0.08922555
0.51421696 -0.40207267 0.6758009 0.2554075 -0.56925094 0.37876794 -0.50053287 -0.5509712
0.09012276 0.579848 -0.20657723 -0.05071124 -0.33496085 0.1581053 -0.26339 0.3186586
0.70522237 -0.1099602 0.19677965 0.30941138 0.14244416 -0.6046057 0.591595 0.21640545
0.28204885 0.43449667 0.42733744 0.047471207 0.031398673 0.54818773 -0.6024439 0.50599855
0.39829463 -0.46485448 -0.1884305 -0.2986583 0.4942215 0.5374005 -0.07876871 0.6258419
0.023765823 -0.16897857 0.8304289 0.40786716 -0.13434875 -0.4316576 0.05863455 0.4495125
-0.18353422 -0.1274505 0.52219605 0.5028735 -0.34189868 0.015308326 0.1385748 0.391664
-0.038936745 0.49324638 -0.16802433 0.016476978 0.09243781 -0.24560061 0.002166933 -0.3306801
-0.3175756 0.30366924 0.12343928 0.65514946 0.32329726 0.58490074 -0.15260637 0.48884133
-0.23129155 -0.4848941 0.3509995 -0.06443441 -0.33385748 0.5767975 0.2605588 -0.36700833
-0.19051754 0.042261973 0.41763103 -0.42178327 0.16185616 -0.42176783 -0.42176932 -0.4787766
0.2312541 -0.18708825 0.64243907 0.31181768 0.44252643 -0.13804449 -0.21650009 -0.05629941
0.33831778 0.44145483 0.16910648 -0.052304875 0.096850656 0.37579864 0.40477803 0.5172419
0.15379973 0.56529593 0.5245294 0.39083698 0.5217365 0.22965288 -0.16994996 -0.096523054
0.7193551 -0.45722437 0.0762139 -0.012948367 0.27645642 0.27727312 0.25130877 -0.39009327
0.50803685 0.49793553 0.24144593 0.068586685 -0.07120882 0.2506433 -0.029592821 -0.5443206
-0.30189896 0.6414078 -0.45883656 0.39680374 0.35739252 0.445113 0.5971238 0.4146447
-0.36158547 0.540776 0.4423047 0.40826565 0.17548926 -0.31884652 0.5833208 0.469958
-0.48670173 0.21109319 -0.31348473 -0.29525018 -0.22643602 0.31509453 -0.28817216 -0.04210569
0.31661215 -0.1188146 0.8145214 0.3727132 -0.15993765 -0.1919227 0.2702327 0.06809379
-0.51111794 0.48568255 -0.12865598 0.17531943 -0.15872884 -0.09405669 -0.069936305 0.5068015
0.20549224 -0.20567833 -0.53364253 -0.15159094 -0.30858356 -0.25520256 0.8385816 -0.1891313
-0.2993414 0.23843089 0.8876126 0.3814172 0.90479565 0.31067553 -0.0005089323 0.41197255
-0.2345418 -0.46367526 -0.51406586 -0.31736317 0.4486354 0.817625 -0.3693628 -0.5468512
0.32249588 0.4045788 0.6013733 0.5576241 -0.14278468 -0.07430621 0.45995045 -0.5518146
0.5880364 0.17393014 -0.055666395 0.5027703 0.43032724 0.5283588 0.2527381 0.25849783
0.56403667 0.13890594 -0.33986714 -0.38807234 0.13185358 0.7226131 -0.2954372 0.371893
0.1959298 0.65820724 -0.013993935 0.019958116 0.08980241 -0.06110833 -0.1363671 0.74910355
-0.20038322 -0.37450078 0.26898614 0.36510497 -0.012210834 0.25913864 -0.08911694 -0.07112325
00000000: f94f 243f fc3e 103e 99c9 a33e d78c 083f
00000010: e7a9 cc3e 16dc 94be d785 61be 275d bbbe
00000020: 721f ac3c 28f3 9abd 9485 283f 0620 683e
00000030: 1167 5a3f 2480 31bc fdc5 d53e 2c15 adbe
00000040: 6f76 d43b a5d2 87be 01a8 2d3f 644b 803e
00000050: c232 483f 93b3 ea3c b544 f83e e3bb b6bd
00000060: b9a3 033f 78dc cdbe 4a01 2d3f c6c4 823e
00000070: 6eba 11bf dfed c13e ec22 00bf 730c 0dbf
00000080: 4892 b83d eb70 143f fb88 53be 97b6 4fbd
00000090: fd7f abbe 5be6 213e 0edb 86be 3827 a33e
000000a0: 7489 343f d032 e1bd 9b80 493e 2b6b 9e3e
000000b0: e2dc 113e 70c7 1abf c572 173f 6499 5d3e
000000c0: b568 903e 5976 de3e f9cb da3e 2b71 423d
000000d0: e59b 003d 0856 0c3f c339 1abf 1f89 013f
000000e0: 46ed cb3e 6801 eebe edf3 40be bee9 98be
000000f0: 9a0a fd3e 1493 093f 7d51 a1bd 2d37 203f
00000100: 8bb0 c23c b808 2dbe fd96 543f f7d3 d03e
00000110: b892 09be 3a02 ddbe c82a 703d 8126 e63e
00000120: 65f0 3bbe 6282 02be a4ae 053f 51bc 003f
00000130: 580d afbe c6cf 7a3c 8de6 0d3e 2f88 c83e
00000140: 237c 1fbd ca8a fc3e 920e 2cbe bafa 863c
00000150: 0950 bd3d ba7e 7bbe 1a03 0e3b e74e a9be
00000160: 4599 a2be 897a 9b3e bccd fc3d e0b7 273f
00000170: 3887 a53e 0ebc 153f d844 1cbe 6949 fa3e
00000180: b1d7 6cbe 0a44 f8be 35b6 b33e 30f6 83bd
00000190: 5eef aabe 00a9 133f f767 853e 84e8 bbbe
000001a0: 0817 43be e41a 2d3d bcd3 d53e faf3 d7be
000001b0: 9fbd 253e f4f1 d7be 26f2 d7be 3522 f5be
000001c0: e0cd 6c3e 1094 3fbe e376 243f 91a6 9f3e
000001d0: d392 e23e 895b 0dbe 33b2 5dbe 369a 66bd
000001e0: fd37 ad3e 5e06 e23e 402a 2d3e a33d 56bd
000001f0: a359 c63d ae68 c03e 113f cf3e f769 043f
00000200: ad7d 1d3e 3cb7 103f 8f47 063f c91b c83e
00000210: 8690 053f 202a 6b3e 5d07 2ebe e1ad c5bd
00000220: a827 383f 5019 eabe 0916 9c3d 6325 54bc
00000230: b28b 8d3e bef6 8d3e 8bab 803e 4eba c7be
00000240: b40e 023f 68f1 fe3e 9a3d 773e 2d77 8c3d
00000250: eed5 91bd 5254 803e a56c f2bc 9858 0bbf
00000260: 8092 9abe 4d33 243f a0ec eabe dc29 cb3e
00000270: 27fc b63e dae5 e33e 1bdd 183f 4f4c d43e
00000280: bb21 b9be 4c70 0a3f c375 e23e 3208 d13e
00000290: 75b3 333e da3f a3be 8354 153f 569e f03e
000002a0: f830 f9be d028 583e 1281 a0be 082b 97be
000002b0: d8de 67be 1254 a13e 4d8b 93be 0477 2cbd
000002c0: fd1a a23e 1255 f3bd 7984 503f 44d4 be3e
000002d0: b2c6 23be 6287 44be f15b 8a3e c274 8b3d
000002e0: a0d8 02bf 62ab f83e 65be 03be f086 333e
000002f0: d089 22be cba0 c0bd c43a 8fbd bebd 013f
00000300: 8f6c 523e 579d 52be cc9c 08bf a83a 1bbe
00000310: aafe 9dbe e9a9 82be 49ad 563f a3ab 41be
00000320: 4743 99be 3a27 743e 943a 633f 1e49 c33e
00000330: b0a0 673f dd10 9f3e de69 05ba 11ee d23e
00000340: ba2b 70be d866 edbe d299 03bf 6d7d a2be
00000350: 8ab3 e53e df4f 513f 1f1d bdbe 71fe 0bbf
00000360: 2e1e a53e f424 cf3e 9af3 193f 74c0 0e3f
00000370: 2636 12be db2d 98bd a07e eb3e b943 0dbf
00000380: 8e89 163f be1a 323e 7202 64bd 8eb5 003f
00000390: da53 dc3e 8642 073f e366 813e d459 843e
000003a0: b564 103f 5c3d 0e3e 1103 aebe 6bb1 c6be
000003b0: a004 073e 2cfd 383f 8b43 97be c268 be3e
000003c0: d2a1 483e 4580 283f d146 65bc 347f a33c
000003d0: 53ea b73d ba4c 7abd d1a3 0bbe 40c5 3f3f
000003e0: 4231 4dbe 91be bfbe 8db8 893e 0aef ba3e
000003f0: f30f 48bc d2ad 843e f182 b6bd 11a9 91bd

l1.bias f4 [8]
0.77050626 0.4217805 0.6479669 0.81430715 0.73490006 0.6659675 0.40624633 0.9698627
00000000: e63f 453f 9df3 d73e 29e1 253f 6f76 503f
00000010: 6922 3c3f d97c 2a3f 85ff cf3e ec48 783f

l2.weight f4 [8, 8]
-0.31454393 0.23130323 0.81409067 -1.0923107 0.6972569 0.22003905 0.556107 0.82902884
0.7258383 0.10780906 -0.028709037 1.0886835 -0.31398386 0.5228322 -1.1139541 0.3880004
0.4932326 0.24673799 -1.2308245 0.6592244 0.76148885 0.7739435 -0.8184547 1.1616583
-0.5138952 -0.9946668 1.0223405 -0.7093354 1.5489471 0.808893 -0.9723794 1.1604216
0.39407125 0.44781515 -0.500844 -0.8007619 0.3820534 1.3357975 1.6791186 0.7382488
1.0530512 -0.033798534 0.8411071 -0.8165845 0.28310192 1.2237827 0.49970934 -0.6738645
1.1109529 0.96767634 1.1204554 1.3808978 -0.9048759 -0.79259694 -0.44360158 1.007571
1.194841 -0.6611639 0.8843751 0.71165746 1.1167765 0.56008255 0.37901834 -0.9664839
00000000: e70b a1be c1da 6c3e 3f68 503f d6d0 8bbf
00000010: 6e7f 323f eb51 613e 075d 0e3f 3c3b 543f
00000020: 8ad0 393f ffca dc3d 372f ebbc fb59 8b3f
00000030: 7ec2 a0be 55d8 053f 0c96 8ebf fda7 c63e
00000040: fc88 fc3e e2a8 7c3e a88b 9dbf eec2 283f
00000050: eff0 423f 2921 463f 3f86 51bf 38b1 943f
00000060: a38e 03bf 7ca2 7ebf 0edc 823f 0197 35bf
00000070: e643 c63f 9d13 4f3f dbed 78bf b288 943f
00000080: b5c3 c93e 0748 e53e 5037 00bf bbfe 4cbf
00000090: 819c c33e 6afb aa3f 5ced d63f e0fd 3c3f
000000a0: 62ca 863f 5570 0abd cb52 573f af0b 51bf
000000b0: bcf2 903e e9a4 9c3f e7d9 ff3e 6282 2cbf
000000c0: b433 8e3f a3b9 773f 156b 8f3f 42c1 b03f
000000d0: f2a5 67bf a2e7 4abf bf1f e3be 16f8 803f
000000e0: 8df0 983f 0a42 29bf 6866 623f 2f2f 363f
000000f0: 88f2 8e3f 9261 0f3f b10e c23e 7d6b 77bf

l2.bias f4 [8]
0.022451196 -0.23629838 0.7093048 0.60494655 0.16379158 -0.39435452 0.42956835 0.6509308
00000000: 92eb b73c 34f8 71be 0095 353f c7dd 1a3f
00000010: fbb8 273e d6e8 c9be 62f0 db3e 67a3 263f

l3.weight f4 [11, 8]
-0.49720678 -1.7419026 -1.4048487 -0.9488955 0.33885416 0.5104604 -0.24283409 -0.01658354
-1.1072439 -0.2503319 -1.7213992 -0.70593655 -1.222654 0.32279834 0.62662226 0.29644457
-0.96337616 0.10701071 0.07265716 0.26441225 -0.32029986 -0.040145125 -0.8730956 0.10534373
0.1801684 -1.5147732 0.16022094 0.23430474 0.45424384 -0.3186153 -2.054828 -0.6039889
-2.5393846 -0.24840547 0.29771096 -1.2464404 0.33518556 -0.47209057 -0.40027437 0.746963
0.058865912 -0.7526365 0.7331342 1.0772033 -0.38295498 -1.9704083 -1.0053794 -0.23112258
0.383092 -1.4354888 -0.27573025 -0.6566111 0.49639493 -1.5061198 0.093002364 -1.0827646
-1.3417388 0.46138698 0.34760553 -0.6260319 -0.10793755 -0.92559797 0.22616827 -1.5353281
0.49059176 -1.324666 -1.6335329 0.6490052 -0.62209296 -0.76749414 0.5286673 -0.53688276
0.03739113 -1.2644198 -1.3888117 0.53967494 -0.22610375 0.12677945 -1.6013839 0.506724
-1.7329154 0.40468484 -0.26258662 -0.83179003 -1.9242579 -1.4248911 0.85646373 0.04218125
00000000: e391 febe aaf6 debf 15d2 b3bf d1ea 72bf
00000010: 4b7e ad3e 88ad 023f 80a9 78be 34da 87bc
00000020: 2bba 8dbf 812b 80be cf56 dcbf 42b8 34bf
00000030: ed7f 9cbf d345 a53e 516a 203f 95c7 973e
00000040: d29f 76bf 6e28 db3d 47cd 943d 0b61 873e
00000050: 58fe a3be 376f 24bd 3183 5fbf 74be d73d
00000060: 117e 383e 17e4 c1bf f510 243e 95ed 6f3e
00000070: a692 e83e 8b21 a3be 4d82 03c0 049f 1abf
00000080: 4785 22c0 015e 7ebe 926d 983e 5c8b 9fbf
00000090: 719d ab3e dbb5 f1be c3f0 ccbe f838 3f3f
000000a0: 621d 713d c9ac 40bf afae 3b3f cce1 893f
000000b0: ad12 c4be 5736 fcbf 46b0 80bf 66ab 6cbe
000000c0: a224 c43e 19be b7bf 842c 8dbe aa17 28bf
000000d0: 7a27 fe3e 89c8 c0bf 0678 be3d 0898 8abf
000000e0: 19be abbf ea3a ec3e 5af9 b13e a043 20bf
000000f0: 5d0e ddbd fdf3 6cbf a898 673e a285 c4bf
00000100: d82e fb3e a88e a9bf 9b17 d1bf 3425 263f
00000110: 7c41 1fbf 7f7a 44bf bd56 073f 2671 09bf
00000120: 7127 193d 82d8 a1bf 95c4 b1bf 2328 0a3f
00000130: be87 67be 79d2 013e 26fa ccbf aab8 013f
00000140: 2cd0 ddbf da32 cf3e c171 86be 31f0 54bf
00000150: 154e f6bf d562 b6bf 3541 5b3f 3fc6 2c3d

l3.bias f4 [11]
-0.23846982 -0.29163536 -0.70293313 -0.113831714 0.19315575 0.19665873 -0.09501966 0.25727972
-0.21155965 -0.012178269 0.13932735
00000000: 6f31 74be 3b51 95be 6df3 33bf 9a20 e9bd
00000010: 9fca 453e e860 493e ab99 c2bd 2bba 833e
00000020: 18a3 58be 5d87 47bc d4ab 0e3e
